tennis_actor_target.model (torch_old, 18662 bytes, 6 tensors)

weight f4 [64, 24]
0	0xbd6a18b9	-0.057152484
1	0x3f12bf2b	0.5732295
2	0xbdaaef4e	-0.08346425
3	0x3c03e0c5	0.008049195
4	0xbf126c16	-0.57196176
5	0x3c3fb3cc	0.011700582
6	0x3da4db77	0.08049672
7	0x3ea3e7da	0.32012826
8	0xbe3231ec	-0.17401856
9	0x3ecaab56	0.39583844
10	0x3d02f7fb	0.031974774
11	0x3e0d2778	0.13784587
12	0xbf02d50d	-0.5110634
13	0xbe9067df	-0.28204247
14	0x3c1bf429	0.009518662
15	0x3e3dfb9b	0.18553011
16	0xbd9e6e4e	-0.07735883
17	0x3ef71fa4	0.48266327
18	0xbd6b7aab	-0.057490032
19	0xbe95e361	-0.2927504
20	0x3df9e2f4	0.12201491
21	0xbe1bbb11	-0.15208079
22	0x3d1f4477	0.038883653
23	0xbd51679e	-0.051124208
24	0xbe040c71	-0.12895371
25	0xbea2925c	-0.31752288
26	0x3e11ed1f	0.14250611
27	0xbedd6501	-0.43241122
28	0xbf0f803c	-0.56055045
29	0x3dfb7572	0.1227826
30	0xbdf9a129	-0.12188942
31	0xbd889655	-0.066692986
32	0xbe791c70	-0.24327254
33	0xbed77a05	-0.4208528
34	0xbe7bb093	-0.24579076
35	0x3d277106	0.040879272
36	0xbe24a7f7	-0.16079699
37	0xbd691e5c	-0.05691372
38	0xbc46277a	-0.012094373
39	0x3ea97638	0.33098006
40	0xbdedffdb	-0.11621066
41	0xbed1037b	-0.40822968
42	0x3df61cd5	0.12017218
43	0xbe8fa0ae	-0.28052276
44	0xbd7f2ac0	-0.06229663
45	0xbf403bb4	-0.750911
46	0x3e5b91b4	0.214423
47	0x3cf3b936	0.029751401
48	0x3dd21832	0.10258521
49	0x3ecf776b	0.40520796
50	0x3e06bdba	0.13158312
51	0x3ea75790	0.32683992
52	0x3de57c0a	0.11205299
53	0xbed4e2ad	-0.4157919
54	0x3e0d347f	0.13789557
55	0x3b740736	0.0037235743
56	0x3e71396d	0.23557062
57	0x3e2624b0	0.16224933
58	0xbca5b3f2	-0.020227406
59	0xbc077e70	-0.008269891
60	0x3e006947	0.1254016
61	0xbeadcb9e	-0.3394441
62	0x39af4341	0.0003342871
63	0x3e22a8ee	0.15884754
64	0x3e760391	0.24024798
65	0x3d0b0c97	0.033947553
66	0xbddf3092	-0.10897936
67	0x3d968a10	0.07350552
68	0x3e54db24	0.2078672
69	0xbe214c2c	-0.15751714
70	0xbe8c5341	-0.27407268
71	0xbd470b61	-0.048594836
72	0x3df5bdec	0.11999115
73	0x3cb69529	0.022287922
74	0x3d9fd2e5	0.07803897
75	0x3e45511e	0.19269225
76	0xbf5afb74	-0.85539937
77	0xbeb76202	-0.35816962
78	0xbda580e7	-0.08081227
79	0xbdebc663	-0.11512449
80	0xbe7c5455	-0.24641545
81	0x3c6461e6	0.013939356
82	0x3dc29d7d	0.09502695
83	0xbd70f1eb	-0.05882446
84	0x3e3febdd	0.18742318
85	0x3e039d3e	0.12852952
86	0xbdc0091e	-0.09376739
87	0x3d5253bd	0.05134939
88	0xbcfbf52a	-0.030756552
89	0xbe83482a	-0.25640994
90	0x3e041b44	0.12901026
91	0x3e37b9a0	0.17941904
92	0x3f932bde	1.1497762
93	0x3eb15e66	0.34642333
94	0xbe17652b	-0.14784686
95	0xbd6649d7	-0.056222763
96	0x3d626fc2	0.05528236
97	0xbe59ee63	-0.21282344
98	0xbd08bbdc	-0.03338228
99	0xbe8fe6c0	-0.28105736
100	0x3ed2cd7b	0.41172394
101	0x3e9ce435	0.30642858
102	0x3d16edfb	0.03684805
103	0xbe5c0ce4	-0.21489292
104	0xbe9238b9	-0.285589
105	0xbe560476	-0.20900139
106	0xbe443906	-0.19162378
107	0xbe83333a	-0.2562502
108	0xbd79259f	-0.060826894
109	0x3dc05350	0.093908906
110	0xbdf8d619	-0.12150211
111	0x3cb6e103	0.02232409
112	0xbe982526	-0.29715842
113	0x3d3f7f47	0.04675224
114	0xbce125a3	-0.027483767
115	0x3d566337	0.052340712
116	0xbda6f40a	-0.081520155
117	0x3d0ee218	0.03488359
118	0xbe0ce31f	-0.13758515
119	0x3e8bb7f8	0.27288795
120	0x3e0006a9	0.1250254
121	0x3e13654e	0.14394113
122	0xbe47125f	-0.19440602
123	0xbe8bca13	-0.27302608
124	0x3e54c404	0.20777899
125	0xbddcfc0c	-0.107902616
126	0xbe156898	-0.1459068
127	0xbef02725	-0.46904865
128	0xbe5b59c2	-0.21420959
129	0xbed8ee8b	-0.42369494
130	0xbd1bfc35	-0.03808232
131	0xbe0c4035	-0.13696368
132	0x3c4d0afb	0.012514825
133	0x3d8bd823	0.06828334
134	0x3e1b173b	0.1514558
135	0xbe4e6b96	-0.20158228
136	0xbe5b3075	-0.21405204
137	0xbe81cd79	-0.25352076
138	0xbd6cbe24	-0.05779852
139	0x39e09397	0.00042834572
140	0x3e9f4918	0.31110454
141	0xbe1d1d23	-0.15343146
142	0x3dc1ec06	0.09468846
143	0xbe1396ea	-0.14413038
144	0x3d184b3d	0.037181128
145	0xbf4dc7f4	-0.8038323
146	0x3df6b74f	0.12046682
147	0x3dd4890a	0.103777006
148	0xbf011826	-0.5042747
149	0xbed826d1	-0.42217115
150	0xbe569445	-0.20954998
151	0xbd899647	-0.06718116
152	0x3d8b098e	0.06788932
153	0xbf35f7e5	-0.7108138
154	0x3e3189d9	0.17337741
155	0x3dbadc50	0.091240525
156	0xbe531a28	-0.20615447
157	0xbe8f81ba	-0.2802866
158	0x3ca2c8be	0.019871112
159	0x3e524426	0.20533809
160	0x3d528902	0.051400192
161	0xbf53c058	-0.8271537
162	0xbe39a71c	-0.18130153
163	0xbc42ad71	-0.011882172
164	0xbedd561a	-0.43229753
165	0xbdf1629b	-0.117863856
166	0xbdba1425	-0.090858735
167	0x3e770aea	0.24125257
168	0xbed9c516	-0.42533177
169	0x3c9102e0	0.017701566
170	0x3e805e06	0.25071734
171	0xbe498b2c	-0.19681996
172	0x3d4a5b08	0.04940322
173	0x3e239fa8	0.15978873
174	0xbde770ba	-0.11300798
175	0x3c7f64cd	0.015587998
176	0xbe923292	-0.28554207
177	0x3d76d833	0.060264777
178	0xbb19c966	-0.002346599
179	0xbe87fc2e	-0.26559585
180	0xbd36c6eb	-0.044623297
181	0xbebeb7f6	-0.37249726
182	0xbca24367	-0.01980753
183	0xbd32da88	-0.04366544
184	0xbe38e4bc	-0.18056005
185	0x3eafb263	0.34315786
186	0xbdb44b31	-0.08803404
187	0x3def0c77	0.11672299
188	0xbdba1209	-0.09085471
189	0xbf2ac6a2	-0.6670934
190	0x3dfc2ad4	0.12312856
191	0x3e9940e2	0.29932314
192	0xbe863a6e	-0.26216453
193	0x3eb46ab4	0.35237658
194	0xbc6d13c2	-0.014470043
195	0xbcb9f520	-0.022699893
196	0xbf1d8a07	-0.6153874
197	0x3ebe748c	0.37198293
198	0x3bff0339	0.0077823666
199	0x3dae86a5	0.08521775
200	0x3dad8c10	0.084739804
201	0x3f2eb7a0	0.6824894
202	0xbd5fdb9e	-0.054652803
203	0xbe05724f	-0.13031887
204	0x3e8b7195	0.27235094
205	0x3e9ec693	0.31010875
206	0x3cd7397c	0.026272528
207	0x3e3a5a78	0.18198574
208	0x3d812d51	0.063074715
209	0x3f0d5d6a	0.55220664
210	0xbc2d8ef9	-0.010593169
211	0xbe8cf85c	-0.27533233
212	0x3fb26117	1.393588
213	0x3e31c50d	0.17360325
214	0xbc2c29aa	-0.01050798
215	0xbe55f3b3	-0.20893745
216	0xbe1465a4	-0.14491898
217	0xbf22bb6d	-0.6356724
218	0x3de810d6	0.11331336
219	0xbea49699	-0.32146147
220	0xbf34125e	-0.70340526
221	0x3f050963	0.5196745
222	0x3cb60ae4	0.02222199
223	0xbe19a0c2	-0.1500273
224	0xbdf59a2b	-0.11992296
225	0xbec60aeb	-0.38680205
226	0xbe272e61	-0.16326286
227	0xbd98f7ce	-0.0746914
228	0xbec3bb1f	-0.382287
229	0x3e03181e	0.12802169
230	0xbc802850	-0.015644222
231	0x3e1b4190	0.15161729
232	0x3e2e170a	0.17000976
233	0xbeba8458	-0.36429095
234	0x3e21788b	0.1576864
235	0x3d3ace8f	0.045607146
236	0x3db54132	0.08850326
237	0xbdc51896	-0.0962383
238	0xbd5bef63	-0.053695094
239	0x3e705425	0.23469599
240	0x3db799ce	0.08964883
241	0x3e4fa175	0.20276435
242	0xbdcd4522	-0.10022952
243	0xbe37ad3c	-0.17937177
244	0x3eaf77b9	0.3427103
245	0xbf588e81	-0.84592444
246	0x3de78b52	0.1130587
247	0xbeb26d8e	-0.3484921
248	0x3c881fc4	0.01661671
249	0xbd2e56d2	-0.042563267
250	0xbe0a92f8	-0.13532627
251	0x3e216717	0.15761982
252	0x3f21fd4e	0.6327714
253	0xbe136b09	-0.143963
254	0xbe18955a	-0.14900723
255	0x3d61e029	0.055145416

bias f4 [64]
0	0xbb94f272	-0.0045455033
1	0x3e26d562	0.16292337
2	0x3dd45ffe	0.103698716
3	0x3e85e676	0.2615239
4	0x3eb3af57	0.3509471
5	0x3e2aebc0	0.16691494
6	0x3e17d1c7	0.14826117
7	0x3e6a9643	0.22908883
8	0xbe01d63f	-0.12679385
9	0x3e843ab8	0.2582605
10	0x3d1425b7	0.03616878
11	0x3cae6fdb	0.021293571
12	0x3cb579b4	0.02215276
13	0x3e61d630	0.22054362
14	0x3d9ecb94	0.07753673
15	0x3d0dbd19	0.034604166
16	0x3ce2c39c	0.027681164
17	0x3e0dbae8	0.1384083
18	0x3dbccc18	0.09218615
19	0xbc8045f0	-0.015658349
20	0xbda4a424	-0.0803912
21	0xbe78b443	-0.24287514
22	0xbe73bd40	-0.23802662
23	0xbe9b7dc3	-0.30369386
24	0xbd1fa7d2	-0.038978405
25	0xbcdf8805	-0.027286539
26	0x3d1c4d37	0.038159575
27	0xbe81db63	-0.2536269
28	0x3e9072a2	0.28212458
29	0x3dbd0c4f	0.09230863
30	0x3ec3f5ac	0.3827337
31	0xbde80f53	-0.11331048
32	0x3ad37d9b	0.0016135456
33	0xbd6719d3	-0.056421112
34	0xbe8cb96a	-0.2748521
35	0x3c6478d2	0.013944821
36	0x3e583741	0.21114828
37	0xbe58e816	-0.21182284
38	0x3c81f3e3	0.015863365
39	0xbe4371dc	-0.19086403
40	0x3e6b32f2	0.22968653
41	0xbe3ea1db	-0.1861643
42	0xbd5b0f97	-0.053481665
43	0x3e8e2624	0.27763474
44	0x3ca9d10c	0.020729564
45	0x3daedfc9	0.085387774
46	0xbdf4d81c	-0.11955282
47	0xbcdfd1e3	-0.027321761
48	0x3d20b421	0.039234284
49	0xbde19e34	-0.11016503
50	0xbf025cfb	-0.50923127
51	0x3e8cf490	0.27530336
52	0x3b6bb74b	0.0035967405
53	0x3dc2af22	0.0950606
54	0x3e959e50	0.29222345
55	0xbd92c735	-0.07166902
56	0xbded3132	-0.11581649
57	0xbc881420	-0.016611159
58	0x3f019930	0.5062437
59	0x3c86cfac	0.016456448
60	0xbd103c55	-0.035213787
61	0x3ddfee6a	0.10934146
62	0x3e107897	0.14108501
63	0x3e21e6af	0.15810655

weight f4 [16, 64]
0	0xbeac3b65	-0.33639064
1	0x3db1bbf0	0.08678424
2	0x3e89e674	0.26933634
3	0x3f908054	1.1289163
4	0xbe4fe760	-0.20303106
5	0xbc223113	-0.0098993955
6	0x3e6cfce2	0.23143342
7	0xbd11c49c	-0.035587892
8	0xbe63e5b0	-0.22255588
9	0xbb1e6588	-0.0024169404
10	0x3d47213b	0.048615675
11	0x3d63afac	0.055587456
12	0xbd3e3cd7	-0.04644474
13	0x3da77701	0.08176995
14	0xbe81c2c8	-0.2534392
15	0xbdeb6466	-0.11493759
16	0x3dd5a5b6	0.104319975
17	0xbd2ebd82	-0.042661197
18	0xbdc3727c	-0.095433205
19	0x3e583135	0.21112521
20	0x3dd6f8a9	0.10496647
21	0xbdcd6a9c	-0.100301
22	0xbd1d543d	-0.038410414
23	0x3e8daa06	0.2766878
24	0x3e850f24	0.25988114
25	0x3e4b035a	0.19825497
26	0x3e4869a8	0.19571555
27	0x3e941d17	0.28928444
28	0xbb5f69d4	-0.0034090178
29	0xbd6d85b9	-0.057988856
30	0xbdb895a2	-0.09012915
31	0xbaba534a	-0.0014215496
32	0x3e0120ce	0.1261017
33	0x3e2544f6	0.16139588
34	0x3e32a802	0.17446902
35	0xbe072382	-0.13197139
36	0x3e4e9043	0.20172219
37	0xbe7562d5	-0.23963483
38	0x3e66618d	0.2249815
39	0x3df8096d	0.12111173
40	0x3d8eaf73	0.06967058
41	0xbe9144c3	-0.28372774
42	0x3ec05c89	0.375706
43	0xbdecc649	-0.115612574
44	0x3e58e322	0.21180394
45	0x3dad8b3b	0.08473822
46	0xbe1fa76f	-0.15591215
47	0xbe3b1406	-0.18269357
48	0x3e24bfc9	0.16088785
49	0x3e5afff4	0.21386701
50	0xbe4320b4	-0.19055444
51	0xbdf6342d	-0.120216705
52	0xbe32240e	-0.17396566
53	0x38cdf48a	9.820711e-05
54	0x3eb2521d	0.34828272
55	0x3e85288a	0.2600749
56	0xbac9d66d	-0.0015398987
57	0x3cc70a85	0.024297008
58	0xbe2598f6	-0.16171631
59	0xbe2ba4a5	-0.16762026
60	0xbe70d33c	-0.2351808
61	0xbe33e01b	-0.17565958
62	0x3e6d148c	0.2315237
63	0xbeacc82f	-0.33746478
64	0xbe4bccf8	-0.19902408
65	0x3d764c4c	0.060131356
66	0x3d48289b	0.04886685
67	0x3f2003ed	0.6250599
68	0x3d490158	0.049073547
69	0x3e29f75a	0.16598263
70	0x3e4a9588	0.19783604
71	0x3d2ed538	0.04268381
72	0x3de3f1d1	0.11130107
73	0xbd924557	-0.07142132
74	0xbd17b61d	-0.03703891
75	0x3e4963ab	0.19666927
76	0x3e1446a2	0.1448007
77	0xbd00d49c	-0.03145276
78	0xbdb6d6a4	-0.08927658
79	0xbe29a314	-0.16566116
80	0xbe1e1d76	-0.15440926
81	0x3e31298a	0.17301002
82	0x3dc83b3f	0.09776925
83	0x3daaccb4	0.08339825
84	0x3c7bc628	0.015367068
85	0xbe116f07	-0.1420251
86	0xbe5bf2d8	-0.21479356
87	0x3e8e5c46	0.27804774
88	0x3cd092b9	0.025460588
89	0x3e373223	0.1789022
90	0x3e3880c6	0.18017873
91	0x3db570f0	0.08859432
92	0x3de71208	0.11282736
93	0xbde816c9	-0.11332471
94	0x3e10b70e	0.1413233
95	0x3e191773	0.14950351
96	0x3e28cb86	0.16483888
97	0x3e566fc6	0.20941076
98	0x3c88e75e	0.016711887
99	0xbe8913e3	-0.26772985
100	0x3e5a939b	0.2134537
101	0xbe135515	-0.14387925
102	0x3e27a161	0.16370155
103	0x3c236500	0.009972811
104	0xbd2696e7	-0.040671255
105	0xbe0b9d10	-0.13634133
106	0x3e939506	0.28824633
107	0x3bd6c7d9	0.0065545854
108	0x3a8a2aa5	0.0010541274
109	0x3e9a4fa8	0.30138898
110	0x3df8a3d5	0.121406235
111	0xbe1f36b8	-0.15548217
112	0x3d17d80e	0.03707128
113	0xbe40c4cb	-0.1882507
114	0xbe8968a8	-0.2683766
115	0x3bcdc3a8	0.0062794276
116	0x3d271ea8	0.04080072
117	0x3e765d32	0.24058989
118	0x3e3f67ed	0.18691988
119	0xbdf0324a	-0.11728342
120	0xbd888053	-0.06665101
121	0xbe137596	-0.14400324
122	0x3e503c3e	0.2033548
123	0xbdb62acd	-0.08894882
124	0xbc8f71c4	-0.017510302
125	0x3df463c9	0.11933095
126	0x3e614c5f	0.2200179
127	0xbe74be97	-0.2390083
128	0xbe3abcc8	-0.18236077
129	0xbe88cd7b	-0.2671927
130	0x3d0cd7fc	0.034385666
131	0x3f2b7e9e	0.6699008
132	0xbd822ac7	-0.063558154
133	0x3db7faa9	0.089833565
134	0x3e865950	0.26240015
135	0xbe8fba19	-0.2807167
136	0x3f1ce520	0.61287117
137	0xbdba9d7e	-0.091120705
138	0x3e427fa7	0.18994008
139	0xbe3a66e8	-0.18203318
140	0x3dd0611c	0.10174772
141	0xbcbdae27	-0.023154331
142	0x3c75dd83	0.015006426
143	0xbd03303b	-0.032028418
144	0xbe9c4909	-0.3052447
145	0xbe41f93a	-0.18942729
146	0x3cd21286	0.025643598
147	0xbe344a3e	-0.17606446
148	0xbe642317	-0.2227901
149	0xbea9a58e	-0.3313412
150	0x3e99491d	0.29938594
151	0x3ec27ea6	0.3798725
152	0xbe6fe63b	-0.2342767
153	0x3e66b33e	0.22529313
154	0x3cd3f9da	0.025875974
155	0x3c9f2caf	0.019430486
156	0xbeddc44a	-0.4331382
157	0x3cbea1b2	0.023270462
158	0xbe6b9221	-0.23004963
159	0x3ebe7160	0.37195873
160	0xbd4d8dc0	-0.05018401
161	0x3e3e7ac4	0.18601519
162	0x3ce22139	0.027603732
163	0xbf4edfa2	-0.80809987
164	0xbce8d1a1	-0.028420271
165	0x3d5e8bf9	0.054332707
166	0xbf3915a8	-0.7229867
167	0x3e8d4f59	0.275996
168	0x3e31123b	0.1729211
169	0xbe8ab6c1	-0.27092555
170	0x3d9bb47d	0.07602785
171	0xbc364b04	-0.011126284
172	0xbe1a79c2	-0.1508551
173	0x3e864f46	0.26232356
174	0x3d21466d	0.039373804
175	0x3e1ad35d	0.15119691
176	0xbe3cb39f	-0.18427895
177	0xbed29c99	-0.411351
178	0xbe0e9ace	-0.13926241
179	0xbe392c15	-0.18083222
180	0xbe663844	-0.22482401
181	0x3c9df2cf	0.01928082
182	0xbd9913a8	-0.07474452
183	0xbdb1a7c2	-0.086745754
184	0x3e842733	0.25811157
185	0x3e307d3a	0.1723527
186	0xbed675d7	-0.4188678
187	0x3e642a57	0.22281776
188	0x3c7667a0	0.015039355
189	0x3e88a4af	0.26688144
190	0x3deabd48	0.11461884
191	0xbe9961b1	-0.29957345
192	0x3e9cf1b8	0.30653167
193	0xbe18eec2	-0.14934829
194	0x3cde0b1f	0.027104912
195	0xbdea1ebc	-0.11431643
196	0x3c639d67	0.013892508
197	0x3d6cf512	0.057850905
198	0x3d9879a4	0.07445076
199	0xbe43e483	-0.19130139
200	0x3e6678b8	0.22506988
201	0x3ea68992	0.32526833
202	0xbdf84bcf	-0.12123834
203	0x3e17baa4	0.14817291
204	0x3e0ab8a8	0.13547003
205	0xbdbf52b2	-0.09341945
206	0xbe90fef2	-0.28319508
207	0x3e2bf9b2	0.1679447
208	0xbd0659ce	-0.03280049
209	0xbd82a236	-0.063785955
210	0xbe0decec	-0.1385991
211	0x3e51581b	0.20443766
212	0x3e349d46	0.1763812
213	0x3c894961	0.016758623
214	0x3de6b29e	0.11264537
215	0xbe3249ce	-0.17410967
216	0xbced2b28	-0.028951243
217	0x3d95b27c	0.07309434
218	0x3e0f86bc	0.14016241
219	0xbf656e9c	-0.896219
220	0x3ed7d951	0.42157987
221	0x3d4c9fc8	0.049957067
222	0xbeadc4e8	-0.3393929
223	0x3ba80c4e	0.00512842
224	0xbe1044ff	-0.1408882
225	0x3dc89ba5	0.09795312
226	0x3d27aaff	0.04093456
227	0x3f0ab42e	0.5418118
228	0xbdfc9026	-0.12332182
229	0x3daba408	0.08380896
230	0xbeb4dee7	-0.3532631
231	0xbe8ac9e8	-0.27107167
232	0xbeca1e0c	-0.3947605
233	0x3cfb4c87	0.03067614
234	0x3e62612d	0.22107382
235	0xbc43f107	-0.011959321
236	0xbe718044	-0.23584086
237	0x3eaf5dbe	0.34251207
238	0x3dc738da	0.097276405
239	0x3e0e52fe	0.13898847
240	0xbea2f32a	-0.31826144
241	0xbe1d1aa4	-0.15342194
242	0xbf3b591f	-0.73182863
243	0xbda4195e	-0.08012651
244	0xbc803454	-0.015649952
245	0xbef06b83	-0.46957025
246	0x3eb0cac1	0.3452969
247	0xbf5db3b0	-0.86602306
248	0x3de56492	0.11200823
249	0x3d49d24d	0.049272824
250	0xbf671387	-0.9026417
251	0x3dec5435	0.11539499
252	0x3d41237b	0.047152977
253	0x3dacc090	0.08435166
254	0xbb6a4d9a	-0.003575182
255	0x3ee585ec	0.44828737

bias f4 [16]
0	0x3b9acfb6	0.004724468
1	0xbdf1ea79	-0.118123
2	0xbe2d369a	-0.1691536
3	0xbea39c04	-0.31954968
4	0x3e83d144	0.25745595
5	0x3e01e1b4	0.12683755
6	0x3cf5d399	0.030008124
7	0xbe8aef6d	-0.27135792
8	0x3cb62fba	0.022239555
9	0xbe2ee93e	-0.17081162
10	0x3bca4270	0.0061724707
11	0x3e6e0e04	0.23247534
12	0xbcb94d79	-0.02261995
13	0x3e507f45	0.2036105
14	0x3dfc3042	0.12313892
15	0x3c642f35	0.013927271

weight f4 [2, 16]
0	0xbea5a3d3	-0.3235155
1	0xbe5ac382	-0.21363643
2	0xbed14842	-0.4087544
3	0x3e8ed1d0	0.2789445
4	0xbd2c50a1	-0.04206908
5	0x3f8b6f0d	1.0893265
6	0x3e046671	0.12929703
7	0x3ec32357	0.381129
8	0x3f14940d	0.5803841
9	0xbe053bbc	-0.13011068
10	0x3f2687c3	0.65050906
11	0x3e9f4b53	0.31112155
12	0x3f8cd8fc	1.1003718
13	0xbf25ed0c	-0.6481483
14	0x3e9e91f5	0.3097073
15	0xbdf45806	-0.11930852
16	0xbf2844d2	-0.6573001
17	0xbea4f557	-0.3221843
18	0x3ea1c1d2	0.31593186
19	0x3f51cd98	0.81954336
20	0xbfa3f231	-1.2808286
21	0x3fc5873e	1.5431898
22	0x3fa3a555	1.278483
23	0x3f85bb3a	1.0447762
24	0xbdd1a188	-0.10235888
25	0x3f75ef68	0.9606843
26	0xbeb36074	-0.35034525
27	0xbe8ad478	-0.27115226
28	0xbfb3427d	-1.4004666
29	0xbe0d16bd	-0.13778205
30	0x3ee532e3	0.44765386
31	0xbe6a8228	-0.22901213

bias f4 [2]
0	0x3d94360a	0.0723687
1	0xbf295b85	-0.6615527
