tennis_critic.model (torch_old, 19317 bytes, 5 tensors)

weight f4 [64, 24]
00000000: 97c5 d4bd f21b 6cbe 9be2 523b dcbe 063e
00000010: b981 17bd 55b4 b13e afc7 a7bb 420a 1dbe
00000020: 2b86 ba3c a2dc 4dbd d9b4 aebd cddf a13d
00000030: dfab 0dbe 6cde 34be 2152 993d 3bcb 23be
00000040: 614b 2b3e 451d 77bb b751 39bc c7f6 84be
00000050: 39d4 58be 04f4 aa3d 1638 203b 23fb d93c
00000060: 468e 7fbd 4b59 aebe 1cb3 ed3d 61e6 1f3e
00000070: 73c4 573e 272f a3bc 9e11 e2bd 6786 b8bd
00000080: 70a3 04bd d685 80bd 49c1 c6bd a340 cdbc
00000090: 6222 343e d47c 953e 1154 c83d 5f9e b93d
000000a0: a059 bc3d 665b fabd 9094 0abe 5968 233c
000000b0: a474 30be 82a7 9cbe 4eb8 113e cb5f 773d
000000c0: 59e0 093d 815e ed3a 30bd 3f3d 49be 05be
000000d0: bcf0 723e 3b7c 47bd 60a6 44bd 5586 0a3e
000000e0: 160e 0dbe c324 b9bd 82e5 61bd 315b e9bd
000000f0: 08af b43d bd41 8d3e f878 763d 9702 f53d
00000100: cc1f d93d a42b afbe 32d3 d53d a5a9 22bd
00000110: fe70 bebe b20f bcbe b8d9 efbd 3b29 703d
00000120: 76b3 043e 8b26 8f3e f9c7 89bd bf9f 963c
00000130: 3223 ddbd 6ff7 5ebb e521 8a3d a380 2cbc
00000140: 6aa8 623d 72e5 0a3f 050d d23a f52f 1d3e
00000150: 07c2 2c3d 8e70 c4be e20f e13c 5bc1 013f
00000160: f22e f23d 95f3 f63e 6ff1 1cbe a3ad a4be
00000170: 07fa 14be 5664 e1be 8186 1e3e e759 a3be
00000180: f92e 563e 0399 08be 4574 9f3c 11a6 3b3e
00000190: 784f 93be 6bd2 45ba 66c6 10bd 754b 3ebe
000001a0: a243 293d 591b a93e 186c 4e3e 5ccb c9bd
000001b0: 86dc 55be 7df5 85be a208 3fbe 1255 0f3e
000001c0: 7eb9 923e 4626 763e 98c9 803c 74b3 2bbc
000001d0: 68a3 26be c18d c9be c944 88bc de36 84bd
000001e0: da39 25bd 65a0 813d 640c d6bb 6f72 9abc
000001f0: 1c0d b4be 8378 a03d 906d 123c 262b 5e3a
00000200: 3156 f93c ad27 8a3e 4197 d33d 7ae2 5fbd
00000210: 1b83 88be 4c6b 58be f595 d2bd e7df c73b
00000220: 1a89 15be 4ba8 863e 226d 543d 8710 903c
00000230: 6dc9 9c3e 1f98 313e ac3b 2bbd 8683 73be
00000240: 79a7 903d 2787 00be 0c7c babd 7f00 213c
00000250: 4813 663e 8f4a 133c 54f4 f23d 4a5f 85bc
00000260: 7574 c4bd b7e6 f73d 9700 203e 6dfd 4bbe
00000270: fa09 77be c793 71bd 65d4 15be 499c ce3d
00000280: 6f8c a2bd 66fc b93d f818 b9bd f263 6c3e
00000290: 8f28 7a3d ed05 06be 02dc bb3d c814 d4bd
000002a0: 17e1 b73d a965 e7bb a9cb b539 dcf0 54bc
000002b0: e0e9 1e3d 0b19 123e b588 e5bb dcd9 cdbc
000002c0: e777 2b3e 5772 503e 1ff7 103e 2732 4dbe
000002d0: e315 2ebe dd3d 223e b1b6 10be b968 883d
000002e0: af04 f2bd b258 863e 181e 00bd a21b 58be
000002f0: 1aa6 6f3e 0910 dd3e a420 573d 31a4 efbc
00000300: 709b 98bd c8c1 5d3d 2607 933c 93f9 043d
00000310: 1333 473e 81b8 863d 13e6 063c 2aeb 28bc
00000320: 0468 e3bd 6228 a9bd 2957 083e b141 61bd
00000330: 0a50 2abe 6ed9 87be 330e 22be b1ad 533d
00000340: 9fae e83d 6f30 e13d 0695 05bc 7aeb ab3c
00000350: 5934 5abd 1792 913d c80b 703c e9ab 1dbe
00000360: 8ac8 513d 4a86 9e3c dc17 44bd eeb8 3cbd
00000370: aa91 f13d 4765 b93e 2c57 4b3d 7f1a 8c3d
00000380: 0873 a5bd 7a97 30bd ca35 0bbe 2d6a 41bc
00000390: fc98 8abe c77c 453e 36a9 193e 357f 113d
000003a0: 6954 cd3d e584 c9bc e927 eb3b 0cbb 2b3e
000003b0: 755a f63d 2233 9cbe 9ed0 41bc ecfe 2a3d
000003c0: 5228 e9bd d012 873d eab9 0cbd 6cc9 cb3c
000003d0: 6c7f ed3d f673 683e b436 283d 5138 6abc
000003e0: 7388 7c3d 89e7 633e 2c5e 64bd 14f7 c93d
000003f0: 6611 71be 7eda a23d fea7 303d 4875 debd
-0.1038925 -0.23057535 0.0032178524 0.13158745 -0.036988948 0.34707895 -0.0051202397 -0.15335944
0.022769054 -0.05025924 -0.08530588 0.07904015 -0.13835095 -0.17662972 0.07486368 -0.15995495
0.16727974 -0.0037706655 -0.011310986 -0.25969526 -0.21174707 0.083473235 0.0024447492 0.02660901
-0.062391542 -0.340525 0.11606428 0.15615226 0.21071033 -0.019919945 -0.110385165 -0.0901001
-0.03238243 -0.06275527 -0.09704835 -0.025055235 0.17591241 0.291968 0.097816594 0.0906341
0.09196782 -0.12224464 -0.13533235 0.009973609 -0.17231995 -0.30596548 0.14230463 0.06039409
0.03366122 0.0018109829 0.046811283 -0.1306087 0.23724645 -0.04870246 -0.04801023 0.13527806
-0.13774905 -0.09040215 -0.055150516 -0.113943465 0.08822447 0.27589217 0.06017396 0.119633846
0.10601768 -0.34212983 0.10440673 -0.039712567 -0.3719558 -0.36730725 -0.117114484 0.05863307
0.12959084 0.27959093 -0.06727595 0.01838672 -0.107977286 -0.0034021994 0.06744746 -0.010528716
0.055336393 0.54256356 0.0016025609 0.15350325 0.042177226 -0.38367122 0.027473394 0.5068566
0.1182536 0.48232713 -0.15326475 -0.32163724 -0.14548503 -0.44021863 0.15480997 -0.31904528
0.20916356 -0.1333962 0.019464621 0.18325068 -0.28771567 -0.00075463083 -0.035345457 -0.18583472
0.041324265 0.33028677 0.20158422 -0.09853241 -0.20884904 -0.26163855 -0.18655637 0.13997295
0.28657144 0.24038038 0.015721127 -0.010479797 -0.16273272 -0.39365962 -0.016634362 -0.064557776
-0.040338375 0.06329421 -0.006532239 -0.018853394 -0.35166252 0.07835486 0.008937255 0.00084750575
0.030436607 0.26983395 0.10331584 -0.054659344 -0.26662526 -0.2113468 -0.10282508 0.0060996893
-0.14603081 0.26300272 0.05186189 0.017586006 0.30622426 0.17343186 -0.041804954 -0.23780641
0.07063193 -0.12551557 -0.09105691 0.009826778 0.22468293 0.008989944 0.11863008 -0.016280789
-0.09592525 0.12104552 0.15625225 -0.19920893 -0.241249 -0.058978822 -0.14631803 0.10088403
-0.07936942 0.09081344 -0.090379655 0.23085001 0.061073836 -0.13088198 0.091728225 -0.10355526
0.08978479 -0.0070616794 0.0003467475 -0.0129968785 0.03879726 0.14267366 -0.007004822 -0.025128298
0.16744958 0.20356117 0.14156769 -0.20038663 -0.17000537 0.15843911 -0.14132191 0.06660599
-0.118172996 0.26239544 -0.0312787 -0.21104291 0.23403206 0.43176296 0.052521363 -0.029253097
-0.07451522 0.054139882 0.017947745 0.032464575 0.19453077 0.0657816 0.008233565 -0.010309974
-0.11103824 -0.082596555 0.13314499 -0.05499429 -0.16632095 -0.26533073 -0.15825729 0.051679317
0.11361431 0.10995566 -0.008153206 0.020986307 -0.05327258 0.071079426 0.014651246 -0.1539761
0.05121664 0.019351143 -0.047874317 -0.0460748 0.11795361 0.3621008 0.04964368 0.06840991
-0.08078581 -0.04311321 -0.13594738 -0.011805099 -0.27069843 0.1928588 0.15005955 0.035521705
0.100258656 -0.024599502 0.0071763885 0.16770571 0.12028972 -0.3050776 -0.011829523 0.04174702
-0.113846436 0.06595385 -0.03435699 0.024876319 0.115965694 0.22700486 0.041067794 -0.014295653
0.061653566 0.22256292 -0.05575387 0.098615795 -0.23541793 0.0795183 0.04312896 -0.108622134

bias f4 [64]
00000000: bc32 d83d fa04 04bd 0cdf 973e ed32 a43e
00000010: 3b0e 2f3e 2d1f 3c3e 7e45 4bbe b871 b53d
00000020: c658 633e 7157 6ebe 2dd6 14be a83e 0abd
00000030: 73d5 6dbe 3c60 883d 03f8 063e 8a67 1c3e
00000040: 61b1 9dbe 3964 933e 9eb7 de3d ea62 14bf
00000050: 3afe 1e3e e2de 98be ea22 8c3c 43aa 1b3d
00000060: 2dd3 993d 0531 b2be 5044 3a3e 3df0 513e
00000070: f969 81bc d852 843e a4c3 e43c a153 5abe
00000080: e1f2 10be 5540 3ebe 0748 1e3e 758d 2bbe
00000090: 97f0 40be a4a1 a13e c755 383d 42d2 e83e
000000a0: 5d68 153a 4b8e 8ebe 98de 103b 25d9 813e
000000b0: 4240 c03e dbd6 92be 4832 27be 9707 d0bd
000000c0: 08f7 6b3d 79e9 8b3c 8b77 27be ac49 2dbf
000000d0: 71d5 9ebe 3669 66be 9384 d13b beb0 8f3e
000000e0: a22b 92be 2bb9 763e 071f 56be 01e1 f1be
000000f0: cbd2 943d 3047 163d fd0a ddbe 6589 8a3d
0.10556552 -0.03223131 0.2966236 0.32070103 0.17095272 0.18371268 -0.19850728 0.08859581
0.22201833 -0.23275544 -0.14534827 -0.03375116 -0.23225956 0.0665898 0.13180546 0.15273872
-0.30799392 0.287874 0.10874866 -0.5796343 0.15526667 -0.29857546 0.017106492 0.03800417
0.07510982 -0.34803024 0.18190122 0.205018 -0.015797602 0.25844455 0.02792532 -0.21320964
-0.14155151 -0.18579228 0.15457164 -0.1675318 -0.18841778 0.31568635 0.04500368 0.45472914
0.000569945 -0.27842936 0.0022105332 0.2536098 0.37549025 -0.28679547 -0.16327775 -0.10157698
0.057608634 0.017079102 -0.16354196 -0.6769054 -0.31022218 -0.22501072 0.006393978 0.2806453
-0.28548914 0.24094073 -0.20910273 -0.47241977 0.07266768 0.036688983 -0.43172446 0.06764487

weight f4 [16, 66]
00000000: 161b dd3d 5ac4 afbb 10b4 37be b96a ca3b
00000010: 99f9 4abc 4dce 80be 9aa1 ffbc ba4d 64bd
00000020: 14d5 293c d59a 34be ba6d d8bc 9797 79bd
00000030: ea50 c1bc d732 bebe 9789 8d3d 966a 81bb
00000040: 59cb 05bd 0ba0 99bd e9a9 18be 0f36 9d3d
00000050: f2f0 ea3d cb9e 943d 20f7 43bd 1c5e 3ebe
00000060: 5e4f 483d a3b8 ef3a 6f46 0fbe 3a1d b83c
00000070: 47b7 483b a09c 7fbc a4fb 44bf 0493 433d
00000080: 764b eebd 8003 2fbd 0b74 fcbd 4b5d 4f3d
00000090: ebd3 99bc d468 92bd 4f5b 4f3d 8719 f13d
000000a0: 2dd1 e73d a6e7 8abd 5185 d33d 2027 3b3d
000000b0: 287b ddbc 3d58 f4be 9456 0c3d 153d 6a3e
000000c0: 43c2 9abd 6050 a53c b90c afbd d1f3 05bd
000000d0: 69fc 9a3d 6277 853e 608a 9a3d 3826 233c
000000e0: 6cba e63d 90dd 25be 84fe cbba 24ab 9f3c
000000f0: 24de edbc 8949 8d3c 4982 563e ca28 cabd
00000100: c9d0 053d e4d4 a1bc 0626 273d c4a2 99bd
00000110: a7f8 bc3d c95f 8d3d 4956 00bd 1f96 103c
00000120: ddef 843d 5e57 d33c 2512 83bc 7b20 913d
00000130: 6ae8 583d 2d7f 6c3d afee 4c3d fdd1 2abc
00000140: 4e41 2abd 8f2f abbc 9fb9 bc3b 9945 e3bc
00000150: 6629 763d 93a4 83bd 65b2 bb3d f148 17bf
00000160: 583f 673d 0054 f53d a698 a5bd e972 8ec0
00000170: 0022 a5bb 911e 0c3e b092 843d 7283 e2bb
00000180: 14ed 9b3e eaad 2dbd 8c51 3f3d 7a6b 21bc
00000190: ca2e 98be e1ed 463b 4365 743b aee0 1fbe
000001a0: 9b1a f83c 6846 83bd 619f 133b 7e5e 97be
000001b0: 89dd 22bd 19da b4bc 8563 03bd 57b3 913d
000001c0: d529 a33b f47f 65bd 4a8e 0fbd 90ab d03a
000001d0: 922c 22bd f2f4 25be 12d2 05be 808a c5bd
000001e0: a969 7fbd a3bc 323d 4dc8 03be c890 f63c
000001f0: 22e0 58bb d590 f33d 1a50 073d 762d 9a3d
00000200: 9bfc 6dbe da3f c0bd 62f0 2bbd c4ec 8e3b
00000210: 5a2a 32bd 179c 11bd d86a b1bc 0e8d 883d
00000220: 5116 433c c9dd 1e3c eb5e a7bd 9d16 d3bc
00000230: ef96 a53c aac8 02be 95d0 07be e739 da3b
00000240: bdc3 43be 4525 4cbd fae3 d43d ed7a 6b3d
00000250: be76 e538 42c8 d7bd bcf1 3c3c 6970 ff3d
00000260: 9e28 d73c 25e5 493e 72f5 98bd 26ee 713c
00000270: 0893 893d a702 58bd 1cb0 853b d0f2 e7bd
00000280: 44bd 2ebd 8be9 193a 682a 20bf a327 8a3d
00000290: 7832 f43c 0672 55bd 0a9f 4ebe 3893 f63c
000002a0: 651d 633e 6cb7 57bc 7b54 8c3d f0bc 9d3c
000002b0: 8497 083d bffd 29be b68b ae3c f5c8 46bd
000002c0: 974a 273c 623c 81bd 18f0 5f39 fca5 d73d
000002d0: c20d 213d 2c67 62bd c02a cebd b7b3 19be
000002e0: e503 e23d ca53 493e 1c27 4f3d 5b18 a2be
000002f0: 3d9f 173e 2f4b 86bc de1c eb3c b5f6 bc3b
00000300: 4adc 93bb 88f4 083d 7346 9f3d 03a8 89bc
00000310: 2b48 45bc 4e78 cfb9 85eb 0fbd 2d4b b5bd
00000320: a296 9cbd 09e6 c0be c53f 33bd c58d 8e3d
00000330: c85b 433d a083 d8bd 349f 10bd 156c d4bb
00000340: 43bd 923d 74aa 603d b0a3 893d ba99 343e
00000350: dca0 e83c fbe1 d33d 45d3 d23c 124b 9b3d
00000360: 8657 45bc c263 53be 2c76 0b3d 5d74 1dbf
00000370: 2f3c e2bc fde4 b7bb f14f 9b3b 4697 9dbf
00000380: 6d39 a4bc 942e 7e3e c039 b63c 1e16 56bd
00000390: 109b 41be a5eb 1dbe 168e d3bd 91de 333b
000003a0: 6659 2cbf 6d64 5c3d 1a1f 54be 1c6b 293e
000003b0: d155 1ebd 5b07 39bd 4d19 acbd 5621 56bd
000003c0: 440b 02bc 1bb6 be3d 266f cfbd a76d 0a3d
000003d0: 57bd eabb c6b1 45bd 9637 763c 9b2c 9a3d
000003e0: f411 2f3d 0714 363d c73e fcbd ce2c 5cbe
000003f0: 0d01 a4bd b5fe 003e ca2e 6ebe b8cc 1d3e
0.10796182 -0.005363983 -0.17939782 0.006177273 -0.01238861 -0.25157395 -0.031204987 -0.05573819
0.010365743 -0.17637189 -0.02641951 -0.060935583 -0.023598153 -0.37148163 0.06911009 -0.0039494736
-0.03266463 -0.07501229 -0.14908566 0.076763265 0.11471738 0.0725685 -0.0478431 -0.18590587
0.048903815 0.0018289279 -0.13991712 0.022474874 0.003062682 -0.015601307 -0.76946473 0.047747627
-0.11635487 -0.042727947 -0.12326821 0.05062608 -0.018777808 -0.07148901 0.050624188 0.11772447
0.11319194 -0.06782465 0.103281625 0.04569161 -0.027036265 -0.4772357 0.034262255 0.22874863
-0.07556584 0.020179927 -0.085473485 -0.032703225 0.07567675 0.26067644 0.07545924 0.0099578425
0.11266026 -0.161978 -0.0015563522 0.019490786 -0.029036589 0.017246978 0.20948137 -0.09871061
0.032669816 -0.019754834 0.040807746 -0.07501748 0.09227114 0.06903035 -0.031332288 0.008824854
0.06491063 0.025798496 -0.015999863 0.07086273 0.052956022 0.05773847 0.050032314 -0.010426042
-0.041566186 -0.020896701 0.0057594324 -0.027743148 0.060098074 -0.064278744 0.091648854 -0.59095675
0.056456894 0.11978912 -0.08085756 -4.451527 -0.0050394535 0.13683535 0.06473291 -0.006912642
0.30454314 -0.042402185 0.04670863 -0.009852285 -0.29723197 0.003035419 0.0037291802 -0.15613052
0.030286124 -0.06409913 0.0022525417 -0.2956428 -0.039762054 -0.022076653 -0.03207733 0.071142845
0.004979352 -0.05603023 -0.035047807 0.001592027 -0.039593287 -0.1620672 -0.13068417 -0.096455574
-0.062356625 0.04363693 -0.12869377 0.030098334 -0.0033092578 0.11892859 0.033035375 0.07528202
-0.23240893 -0.09387179 -0.041977294 0.0043617208 -0.04349742 -0.03554925 -0.021657392 0.06667529
0.011907176 0.009696432 -0.08172401 -0.025767619 0.020213572 -0.1277186 -0.13263161 0.0066597345
-0.19117637 -0.04984023 0.103950456 0.057490278 0.000109416884 -0.10536243 0.011532243 0.124726124
0.026264485 0.19716318 -0.0746869 0.014766252 0.06717497 -0.052736904 0.0040798318 -0.1132561
-0.042660967 0.00058712874 -0.62564707 0.06745841 0.029809222 -0.052110694 -0.20177856 0.030099496
0.22179182 -0.01316629 0.06852051 0.019255131 0.03334762 -0.16600703 0.021306854 -0.04853149
0.010210655 -0.06310345 0.00021356379 0.10529706 0.03931976 -0.055274174 -0.10066748 -0.15009962
0.11035899 0.19660869 0.050574407 -0.31659207 0.14806838 -0.016393272 0.028700288 0.0057667145
-0.0045123445 0.03343633 0.07777109 -0.016803747 -0.012041132 -0.0003957175 -0.03513672 -0.08852229
-0.076459184 -0.37675503 -0.043761987 0.06960634 0.04769495 -0.105719805 -0.035308078 -0.006482611
0.07165005 0.054850057 0.06720674 0.17636767 0.028397016 0.10345837 0.025735507 0.07582678
-0.012044793 -0.20643523 0.034048244 -0.6150568 -0.027616588 -0.0056120143 0.0047397544 -1.231179
-0.020046914 0.24822456 0.022244334 -0.052267186 -0.18906808 -0.15421923 -0.10329835 0.0027445892
-0.6732391 0.05380671 -0.2071499 0.16544765 -0.03865606 -0.04517303 -0.08403263 -0.052277885
-0.007937256 0.093120776 -0.10128622 0.03379598 -0.0071636843 -0.04826524 0.015027901 0.07528039
0.04274173 0.044452693 -0.12316661 -0.21501467 -0.08008013 0.12597163 -0.23260036 0.15410125

bias f4 [16]
00000000: b9fa 563e e8da f73d 420d a4be ca91 4e3d
00000010: c576 4e3d 2057 853e 8c23 84be 8fcb 603e
00000020: f915 863d 7855 48be 623c 453d 55b9 5ebe
00000030: 39eb c53d e45a 9dbe c1ba 743d b2cb cb3e
0.2099408 0.121023 -0.32041365 0.050432004 0.050406236 0.26043034 -0.2580837 0.21952651
0.0654716 -0.19563854 0.04815329 -0.21750386 0.09664006 -0.30733407 0.059748415 0.39803845

weight f4 [1, 16]
00000000: 8e02 143e 70ac 143e 2ba9 71be 67aa 7ebe
00000010: bd1c 083e eab3 8e3d e3ff f7bd 82d4 7d3d
00000020: 1704 223e b15c 7ebd f799 9ebd 931d 413d
00000030: 9287 cd3d b882 21be e7c8 743e eb7f 823d
0.144541 0.14518905 -0.23599689 -0.24869691 0.13292213 0.0696791 -0.121093534 0.06197024
0.15821873 -0.062100116 -0.0774421 0.047147345 0.100356236 -0.15772521 0.23904763 0.06372055
