tennis_actor.model (torch_old, 18662 bytes, 6 tensors)

weight f4 [64, 24]
-0.056957595 0.57316184 -0.08345414 0.007877007 -0.57178915 0.01157512 0.08050688 0.31995615
-0.17384832 0.3957034 0.03181611 0.13764791 -0.51089233 -0.28215545 0.009359991 0.18533216
-0.07719424 0.48245385 -0.057556156 -0.2928859 0.12218328 -0.15217492 0.03881755 -0.051259663
-0.12887205 -0.3175113 0.14263783 -0.4324888 -0.5604776 0.12268147 -0.12175776 -0.06677049
-0.2432029 -0.42086813 -0.24585292 0.04076307 -0.16070555 -0.057004362 -0.012156482 0.33086395
-0.11615223 -0.40828073 0.12000087 -0.28065827 -0.06218785 -0.75098664 0.2142517 0.02961599
0.10261728 0.40542525 0.13147482 0.32678935 0.11212278 -0.4158781 0.1377873 0.0036729663
0.23563544 0.16242886 -0.02014733 -0.0084198285 0.125484 -0.3395397 0.00041436925 0.15869765
0.24029025 0.034073677 -0.1090033 0.07331293 0.20795934 -0.15761492 -0.2740967 -0.048787456
0.11999514 0.022426613 0.07800555 0.19272062 -0.8554789 -0.35819253 -0.08084571 -0.1150962
-0.24639702 0.0140898805 0.09515408 -0.058702383 0.18736792 0.12851076 -0.09364033 0.0514715
-0.030753441 -0.25625587 0.12889728 0.17935671 1.1497505 0.34641302 -0.14795992 -0.056285128
0.055357385 -0.21294044 -0.03328929 -0.28114462 0.41187552 0.30640882 0.03694105 -0.21498017
-0.28552383 -0.20915605 -0.19169763 -0.25644004 -0.060683943 0.09390444 -0.12157592 0.022134326
-0.29710945 0.04654488 -0.027606469 0.05227736 -0.08138582 0.0348998 -0.13770786 0.27282462
0.12519667 0.14395945 -0.19423996 -0.27299356 0.20796026 -0.10806925 -0.14574073 -0.46901616
-0.21405333 -0.42367658 -0.03823865 -0.13702045 0.012695017 0.06811985 0.15129952 -0.20163907
-0.21390493 -0.25350177 -0.057893526 0.00043276348 0.31128156 -0.15359005 0.094593495 -0.14412598
0.03718219 -0.80363303 0.12025082 0.10374824 -0.5042053 -0.42217943 -0.20976608 -0.06720998
0.067913234 -0.7106169 0.17347781 0.09121112 -0.20607166 -0.28030172 0.0199715 0.20530869
0.051401984 -0.8269641 -0.18138543 -0.01192241 -0.43220922 -0.117881134 -0.09094261 0.24121238
-0.42524394 0.017745052 0.25085062 -0.19684625 0.049571604 0.15968448 -0.112874754 0.015561759
-0.2854636 0.06029723 -0.002389591 -0.26566133 -0.04444025 -0.37259325 -0.019850528 -0.043730866
-0.18049751 0.34316725 -0.08818195 0.116625 -0.09066252 -0.6671801 0.12298071 0.29922518
-0.26217863 0.35241824 -0.014440869 -0.022606565 -0.6154563 0.37199295 0.0078115445 0.0853111
0.08473858 0.6825444 -0.054500215 -0.1301995 0.27228275 0.3101195 0.026425133 0.18210517
0.06306473 0.5522789 -0.010671188 -0.27523696 1.3935237 0.17361653 -0.010585998 -0.20884202
-0.14485337 -0.6356655 0.113318026 -0.32158193 -0.7032804 0.51960695 0.022226626 -0.15014777
-0.11986147 -0.386813 -0.16327773 -0.07476369 -0.38215002 0.12797943 -0.015659051 0.15154503
0.1700662 -0.36432782 0.15757026 0.045492087 0.08864832 -0.09625498 -0.053811297 0.23458098
0.08963814 0.20275936 -0.1001636 -0.1794179 0.34271133 -0.8458956 0.113124676 -0.3485382
0.016606126 -0.042580012 -0.13533655 0.15750228 0.63276666 -0.14393519 -0.14901751 0.05502785
00000000: 5e4c 69bd bcba 123f 01ea aabd 900e 013c
00000010: c660 12bf 92a5 3d3c cbe0 a43d 4bd1 a33e
00000020: 4b05 32be a399 ca3e 9c51 023d 93f3 0c3e
00000030: d7c9 02bf ae76 90be a65a 193c b7c7 3d3e
00000040: 0418 9ebd 3104 f73e 01c0 6bbd 24f5 95be
00000050: 3a3b fa3d bed3 1bbe 27ff 1e3d a7f5 51bd
00000060: 09f7 03be d790 a2be a70f 123e 2c6f ddbe
00000070: 767b 0fbf 6c40 fb3d 225c f9bd f7be 88bd
00000080: 2e0a 79be 077c d7be dec0 7bbe 2df7 263d
00000090: ff8f 24be 687d 69bd fb2b 47bc 0067 a93e
000000a0: 38e1 edbd 2c0a d1be 04c3 f53d 71b2 8fbe
000000b0: b0b8 7ebd a940 40bf cc64 5b3e 3c9d f23c
000000c0: 0229 d23d e693 cf3e 56a1 063e ef50 a73e
000000d0: a1a0 e53d f9ed d4be 1d18 0d3e 26b6 703b
000000e0: 6b4a 713e c053 263e 030c a5bc 52f3 09bc
000000f0: e17e 003e 26d8 adbe b33f d939 a381 223e
00000100: a60e 763e d790 0b3d 1f3d dfbd 1725 963d
00000110: 4bf3 543e ce65 21be 6756 8cbe 5bd5 47bd
00000120: 03c0 f53d 04b8 b73c 60c1 9f3d 8e58 453e
00000130: aa00 5bbf 0365 b7be 7092 a5bd 8eb7 ebbd
00000140: 804f 7cbe 3ed9 663c 24e0 c23d e971 70bd
00000150: 60dd 3f3e 5398 033e 80c6 bfbd c8d3 523d
00000160: a4ee fbbc f833 83be a6fd 033e 49a9 373e
00000170: 062b 933f 0c5d b13e ce82 17be 3c8b 66bd
00000180: 6dbe 623d 0f0d 5abe 5a5a 08bd 30f2 8fbe
00000190: 59e1 d23e 9ee1 9c3e 804f 173d c323 5cbe
000001a0: 2e30 92be 012d 56be 624c 44be 1c4c 83be
000001b0: ba8f 78bd f950 c03d ccfc f8bd 0c53 b53c
000001c0: bb1e 98be d8a5 3e3d f626 e2bc c920 563d
000001d0: 9cad a6bd 18f3 0e3d 4a03 0dbe abaf 8b3e
000001e0: 8e33 003e 1b6a 133e d7e6 46be d0c5 8bbe
000001f0: 89f3 543e 6953 ddbd 0f3d 15be e322 f0be
00000200: cc30 5bbe 23ec d8be 21a0 1cbd 174f 0cbe
00000210: c3fe 4f3c 6b82 8b3d 43ee 1a3e 797a 4ebe
00000220: e509 5bbe fcca 81be c321 6dbd 88e4 e239
00000230: 4c60 9f3e b646 1dbe 3cba c13d c395 13be
00000240: 5a4c 183d e5ba 4dbf 1046 f63d f579 d43d
00000250: 9913 01bf e727 d8be ebcc 56be 63a5 89bd
00000260: 1816 8b3d fdea 35bf 2ba4 313e e5cc ba3d
00000270: 7304 53be b583 8fbe 459b a33c 713c 523e
00000280: e38a 523d ebb3 53bf 1abd 39be 3656 43bc
00000290: 874a ddbe aa6b f1bd 1e40 babd 6100 773e
000002a0: 93b9 d9be 125e 913c 7e6f 803e 1092 49be
000002b0: 980b 4b3d 5484 233e e12a e7bd bff6 7e3c
000002c0: 4928 92be 3afa 763d af9a 1cbb c304 88be
000002d0: fb06 36bd 8bc4 bebe 939d a2bc 231f 33bd
000002e0: 57d4 38be 9eb3 af3e bd98 b4bd 17d9 ee3d
000002f0: 45ad b9bd 51cc 2abf 4fdd fb3d 0b34 993e
00000300: 473c 86be 2a70 b43e 6599 6cbc 6731 b9bc
00000310: 8b8e 1dbf dc75 be3e fcf7 ff3b 96b7 ae3d
00000320: 6c8b ad3d 3bbb 2e3f 9e3b 5fbd 0553 05be
00000330: a568 8b3e fcc7 9e3e 8579 d83c c779 3a3e
00000340: 1528 813d 2662 0d3f 35d6 2ebc dceb 8cbe
00000350: fc5e b23f 88c8 313e e570 2dbc afda 55be
00000360: 7154 14be f9ba 22bf 4813 e83d 63a6 a4be
00000370: 2f0a 34bf f604 053f 9d14 b63c 56c0 19be
00000380: ee79 f5bd 5b0c c6be 4732 27be b51d 99bd
00000390: 2ba9 c3be 0a0d 033e 6947 80bc 9f2e 1b3e
000003a0: d525 2e3e 2d89 babe 195a 213e e955 3a3d
000003b0: 408d b53d 5521 c5bd 3c69 5cbd ff35 703e
000003c0: 3394 b73d 26a0 4f3e 9322 cdbd 53b9 37be
000003d0: dc77 af3e 9d8c 58bf e9ad e73d 9973 b2be
000003e0: 9209 883c 6168 2ebd aa95 0abe 4748 213e
000003f0: fffc 213f bf63 13be 0c98 18be e264 613d

bias f4 [64]
-0.004707397 0.16285251 0.10366034 0.26153737 0.35089812 0.1667245 0.14830391 0.2289972
-0.12676716 0.25820205 0.03616776 0.021363193 0.022225259 0.22058482 0.0775123 0.03444317
0.027726205 0.13831471 0.092342414 -0.015483635 -0.08027286 -0.2429161 -0.23788977 -0.3035873
-0.038747713 -0.027113575 0.03822656 -0.2535141 0.28215384 0.09210428 0.38271093 -0.11335925
0.0016402329 -0.05633891 -0.2748023 0.01403521 0.21119867 -0.21202262 0.01592399 -0.19078225
0.22966865 -0.18632281 -0.05349336 0.2775763 0.020679694 0.08551723 -0.119459614 -0.02745332
0.039081685 -0.11010941 -0.5090645 0.2751495 0.0035317007 0.095205955 0.29237026 -0.07186855
-0.11586139 -0.016669594 0.5061711 0.01655555 -0.035302535 0.109513275 0.14112587 0.1579705
00000000: 8240 9abb cfc2 263e df4b d43d 3ae8 853e
00000010: eba8 b33e d4b9 2a3e fbdc 173e 3e7e 6a3e
00000020: 40cf 01be 0f33 843e a524 143d dd01 af3c
00000030: bf11 b63c fde0 613e c5be 9e3d 4814 0d3d
00000040: 1122 e33c 5fa2 0d3e 051e bd3d 12af 7dbc
00000050: 1966 a4bd 00bf 78be 6099 73be cb6f 9bbe
00000060: ecb5 1ebd 4a1d debc 7493 1c3d 9acc 81be
00000070: 7876 903e 2ba1 bc3d b0f2 c33e e528 e8bd
00000080: 15fd d63a a1c3 66bd e3b2 8cbe f0f3 653c
00000090: 7744 583e 751c 59be 0773 823c 6c5c 43be
000000a0: 422e 6b3e 68cb 3ebe da1b 5bbd 7b1e 8e3e
000000b0: 7668 a93c a823 af3d 3ea7 f4bd c9e5 e0bc
000000c0: 1e14 203d 0b81 e1bd 0d52 02bf 65e0 8c3e
000000d0: 1b74 673b 57fb c23d 8eb1 953e d12f 93bd
000000e0: bd48 edbd ac8e 88bc 6e94 013f 819f 873c
000000f0: 6499 10bd 7f48 e03d 4d83 103e 05c3 213e

weight f4 [16, 64]
-0.33637244 0.08679129 0.26936734 1.1288545 -0.20309684 -0.009930373 0.23144753 -0.03556915
-0.222534 -0.0024357375 0.048543043 0.055558108 -0.046421576 0.08171245 -0.25345653 -0.11499251
0.10421557 -0.042566787 -0.09539375 0.21105939 0.10493629 -0.10029163 -0.038481306 0.27668
0.26001102 0.1982477 0.19564572 0.28929877 -0.0033811152 -0.057972305 -0.090044916 -0.0014637174
0.12608165 0.1614583 0.17440131 -0.13206285 0.20164262 -0.23964007 0.22507292 0.12106692
0.06963187 -0.28366333 0.37563032 -0.115677096 0.21182331 0.0846813 -0.15591352 -0.18267073
0.16087133 0.21393251 -0.1904771 -0.12021837 -0.17392264 0.00013356637 0.3482611 0.25999486
-0.0015326773 0.024312882 -0.16183378 -0.16769226 -0.2352161 -0.17566004 0.23156114 -0.33748597
-0.19877563 0.060216647 0.048913468 0.625092 0.0490434 0.16591886 0.19793826 0.04281776
0.11132025 -0.07133794 -0.037102547 0.19668697 0.14487286 -0.03151901 -0.08907584 -0.16574807
-0.15454921 0.17327122 0.09783075 0.08351974 0.015506844 -0.14201547 -0.2146639 0.27818155
0.025637036 0.17896652 0.1802576 0.08869573 0.112757206 -0.11315084 0.1415034 0.14949533
0.16496596 0.20949477 0.016606918 -0.26783055 0.21338886 -0.14378281 0.1637285 0.009894115
-0.040746585 -0.13613646 0.28823632 0.0065536294 0.0010193834 0.3013866 0.12144924 -0.1554942
0.03708093 -0.18820445 -0.26830274 0.006426948 0.04080196 0.2405996 0.18693814 -0.11736226
-0.06666355 -0.14399138 0.203307 -0.088986576 -0.017385412 0.119334154 0.22005674 -0.23902337
-0.18233113 -0.2672349 0.03445833 0.66981405 -0.06373401 0.089738786 0.26241618 -0.28086832
0.61282486 -0.091206215 0.18976334 -0.182196 0.101849414 -0.023175746 0.015045193 -0.032197148
-0.3053251 -0.1893776 0.025460385 -0.17615744 -0.2229116 -0.33135313 0.2993669 0.37980053
-0.23421524 0.22531083 0.02577834 0.019431109 -0.43332294 0.023212712 -0.23017195 0.37200084
-0.050273214 0.18598491 0.02755681 -0.8082414 -0.02852393 0.054417416 -0.72293144 0.27582493
0.17285886 -0.27096447 0.07592276 -0.011210083 -0.15099743 0.26215306 0.03930884 0.15103814
-0.18425564 -0.41130114 -0.13920353 -0.18093453 -0.22484457 0.019130131 -0.07477002 -0.086752854
0.25804955 0.17237131 -0.41912577 0.22269523 0.015040719 0.26669878 0.11463341 -0.29973546
0.30633464 -0.14941527 0.027037345 -0.114360034 0.013909662 0.057925727 0.07439766 -0.1914173
0.22502802 0.3252013 -0.12113697 0.14816596 0.13537008 -0.09336762 -0.28340104 0.16801722
-0.03276746 -0.06400581 -0.13860951 0.20437196 0.17627062 0.01671942 0.112529054 -0.17421909
-0.029099043 0.07303666 0.1400904 -0.89629793 0.4217707 0.049836803 -0.3395414 0.00512792
-0.14097315 0.09789695 0.041013487 0.54187775 -0.12326236 0.0836705 -0.35320702 -0.27096567
-0.3947482 0.030516066 0.22103953 -0.011972396 -0.2357062 0.34253442 0.09722655 0.13903262
-0.31830966 -0.15350175 -0.7319192 -0.08024753 -0.015593473 -0.46958098 0.34529874 -0.8658521
0.11206647 0.049208857 -0.90251386 0.115400895 0.04706882 0.08437128 -0.00359056 0.4482966
00000000: 0239 acbe a2bf b13d 84ea 893e 4e7e 903f
00000010: 9ef8 4fbe 01b3 22bc 9500 6d3e f5b0 11bd
00000020: f4df 63be e5a0 1fbb 12d5 463d e690 633d
00000030: 8d24 3ebd db58 a73d 0ec5 81be 3181 ebbd
00000040: f96e d53d 835a 2ebd cc5d c3bd f41f 583e
00000050: d6e8 d63d b365 cdbd 939e 1dbd 00a9 8d3e
00000060: 2a20 853e 7201 4b3e 5a57 483e f81e 943e
00000070: b395 5dbb 5e74 6dbd 7869 b8bd 35da bfba
00000080: 8c1b 013e 5355 253e 4296 323e 7c3b 07be
00000090: 677b 4e3e 3564 75be 8479 663e eff1 f73d
000000a0: 279b 8e3d 523c 91be 9e52 c03e 1de8 ecbd
000000b0: 36e8 583e 646d ad3d cba7 1fbe 090e 3bbe
000000c0: 74bb 243e 2011 5b3e 6e0c 43be 0c35 f6bd
000000d0: c718 32be f30d 0c39 474f b23e 0c1e 853e
000000e0: 1ee4 c8ba cf2b c73c c1b7 25be 85b7 2bbe
000000f0: 7ddc 70be 3ae0 33be 5d1e 6d3e f6ca acbe
00000100: d78b 4bbe bba5 763d 7d59 483d 0806 203f
00000110: bbe1 483d a2e6 293e 54b0 4a3e ad61 2f3d
00000120: dffb e33d a019 92bd d7f8 17bd 4f68 493e
00000130: 8d59 143e 141a 01bd 656d b6bd ddb9 29be
00000140: 2642 1ebe 036e 313e 7d5b c83d 660c ab3d
00000150: 6b10 7e3c 816c 11be dad0 5bbe d06d 8e3e
00000160: c304 d23c 0043 373e 7395 383e 1ba6 b53d
00000170: 40ed e63d a1bb e7bd 44e6 103e 4e15 193e
00000180: d6ec 283e cc85 563e 3b0b 883c 1621 89be
00000190: 9c82 5a3e cd3b 13be 72a8 273e ed1a 223c
000001a0: e4e5 26bd 5b67 0bbe b693 933e d4bf d63b
000001b0: d59c 853a 584f 9a3e 61ba f83d df39 1fbe
000001c0: 2ce2 173d abb8 40be fa5e 89be 2699 d23b
000001d0: f51f 273d be5f 763e b66c 3f3e a05b f0bd
000001e0: e686 88bd 7a72 13be b62f 503e 983e b6bd
000001f0: da6b 8ebc 7765 f43d 8e56 613e 8bc2 74be
00000200: 03b5 3abe 03d3 88be 2e24 0d3d ef78 2b3f
00000210: fa86 82bd f8c8 b73d 6a5b 863e f9cd 8fbe
00000220: 17e2 1c3f 53ca babd 5251 423e 9791 3abe
00000230: 6d96 d03d 10db bdbc 1d80 763c 28e1 03bd
00000240: 9253 9cbe 34ec 41be 4c92 d03c 9e62 34be
00000250: f042 64be 1ea7 a9be 9e46 993e 3775 c23e
00000260: 1fd6 6fbe e2b7 663e 192d d33c fd2d 9f3c
00000270: 81dc ddbe 9628 be3c 32b2 6bbe e576 be3e
00000280: 49eb 4dbd d472 3e3e d2be e13c e9e8 4ebf
00000290: 04ab e9bc cce4 5e3d 0912 39bf ed38 8d3e
000002a0: ea01 313e dbbb 8abe 647d 9b3d 7faa 37bc
000002b0: 129f 1abe ed38 863e 4e02 213d bea9 1a3e
000002c0: 83ad 3cbe 1096 d2be 5f8b 0ebe e746 39be
000002d0: a83d 66be cbb6 9c3c 0621 99bd 7bab b1bd
000002e0: 121f 843e 1b82 303e a797 d6be 380a 643e
000002f0: 596d 763c be8c 883e ecc4 ea3d ed76 99be
00000300: e5d7 9c3e 5100 19be 6c7d dd3c 9835 eabd
00000310: 5ae5 633c 8743 6d3d cd5d 983d e602 44be
00000320: bf6d 663e c980 a63e a916 f8bd d1b8 173e
00000330: 749e 0a3e 8637 bfbd f119 91be b50c 2c3e
00000340: 2c37 06bd 7a15 83bd a7ef 0dbe e246 513e
00000350: 4980 343e 2af7 883c a275 e63d 7d66 32be
00000360: 1e61 eebc 3f94 953d dc73 0f3e c873 65bf
00000370: 54f2 d73e ad21 4c3d 5fd8 adbe 1c08 a83b
00000380: 445b 10be 327e c83d c2fd 273d 80b8 0a3f
00000390: fa70 fcbd 705b ab3d 8dd7 b4be 03bc 8abe
000003a0: 701c cabe d4fc f93c 3058 623e de27 44bc
000003b0: f75c 71be ac60 af3e b71e c73d 915e 0e3e
000003c0: 7cf9 a2be 902f 1dbe 0f5f 3bbf d158 a4bd
000003d0: c47b 7fbc eb6c f0be ffca b03e 7ca8 5dbf
000003e0: 1b83 e53d 3a8f 493d 260b 67bf 4e57 ec3d
000003f0: 3ccb 403d daca ac3d 9a4f 6bbb 2287 e53e

bias f4 [16]
0.004725839 -0.11800335 -0.16926485 -0.31964314 0.25757205 0.12667143 0.029755475 -0.27123657
0.022100031 -0.17067564 0.0062213643 0.23234187 -0.022593943 0.20372063 0.12306207 0.01404408
00000000: 36db 9a3b beab f1bd c453 2dbe 44a8 a3be
00000010: 7ce0 833e 28b6 013e c1c1 f33c 85df 8abe
00000020: 200b b53c 98c5 2ebe 96dc cb3b 07eb 6d3e
00000030: ef16 b9bc 249c 503e f707 fc3d 2419 663c

weight f4 [2, 16]
-0.32348427 -0.2137343 -0.40880397 0.27896243 -0.042061426 1.0892223 0.12904729 0.38116124
0.5802185 -0.13012274 0.6505889 0.31110275 1.1004263 -0.6482762 0.30971643 -0.119357444
-0.6571786 -0.32206634 0.31607726 0.8196867 -1.280859 1.5431527 1.2782938 1.0450165
-0.10226266 0.9607653 -0.3502684 -0.2711339 -1.4006064 -0.13767284 0.44758713 -0.2289418
00000000: bb9f a5be 2add 5abe c14e d1be 2ad4 8e3e
00000010: 9a48 2cbd a36b 8b3f f924 043e 9127 c33e
00000020: 3389 143f e53e 05be ff8c 263f dc48 9f3e
00000030: c5da 8c3f 6ef5 25bf 2793 9e3e ad71 f4bd
00000040: db3c 28bf e1e5 a4be e1d4 a13e fdd6 513f
00000050: 30f3 a3bf 0786 c53f 229f a33f 1ac3 853f
00000060: 166f d1bd b7f4 753f 6156 b3be 10d2 8abe
00000070: 1247 b3bf 1cfa 0cbe 242a e53e b86f 6abe

bias f4 [2]
0.07224053 -0.66150284
00000000: d8f2 933d 4058 29bf
