tennis_critic_target.model (torch_old, 19317 bytes, 5 tensors)

weight f4 [64, 24]
000000 32 87 d4 bd fc d1 6b be 2e 57 5e 3b fc 15 07 3e
       -0.10377349 -0.23029321 0.0033926475 0.1319198
000010 3a e9 16 bd e4 b6 b1 3e 5e 0d a2 bb 1d b3 1c be
       -0.036843516 0.34709847 -0.004945441 -0.15302701
000020 1c 94 bb 3c 99 8f 4c bd f3 96 ae bd 44 fa a1 3d
       0.022897772 -0.049941633 -0.08524885 0.079090625
000030 e0 7f 0d be 56 cd 34 be 02 70 99 3d fc bd 23 be
       -0.13818312 -0.17656454 0.07492067 -0.15990442
000040 e7 7b 2b 3e 92 57 61 bb f8 17 36 bc 0c f5 84 be
       0.16746484 -0.0034384471 -0.011114113 -0.25968206
000050 3c a3 58 be 9a 37 ab 3d 00 1f 2d 3b a8 16 da 3c
       -0.21156019 0.083602145 0.0026416183 0.026622131
000060 5e 2c 7f bd 79 3f ae be bd 04 ee 3d 16 02 20 3e
       -0.06229817 -0.340328 0.116219975 0.15625796
000070 9c b5 57 3e 15 a8 a2 bc f6 bf e1 bd f7 4e b8 bd
       0.21065372 -0.019855538 -0.11022942 -0.08999436
000080 25 57 04 bd 50 24 80 bd 33 da c6 bd 3a 82 ce bc
       -0.03230967 -0.06256926 -0.09709587 -0.025208581
000090 22 10 34 3e f8 8a 95 3e 21 3b c8 3d f6 4d b9 3d
       0.17584279 0.29207587 0.09776903 0.09048073
0000a0 47 7f bc 3d e9 0e fa bd 8d 8d 0a be 37 eb 20 3c
       0.09203964 -0.12209875 -0.1353056 0.009821705
0000b0 44 87 30 be da 90 9c be 4c bf 11 3e 80 c0 76 3d
       -0.172391 -0.30579263 0.1423313 0.060242176
0000c0 37 22 09 3d 94 9b dc 3a 0f 6b 40 3d 3e af 05 be
       0.033479895 0.0016831034 0.0469771 -0.13055131
0000d0 40 0d 73 3e 33 cf 46 bd 7b f8 43 bd 5e 95 0a 3e
       0.23735523 -0.048537444 -0.04784439 0.13533542
0000e0 29 3f 0d be 84 55 b9 bd cc ef 61 bd e9 ef e8 bd
       -0.13793625 -0.09049514 -0.05516033 -0.11373884
0000f0 a4 e6 b4 3d 4a 58 8d 3e a4 6e 76 3d d8 6d f5 3d
       0.08833054 0.27606422 0.06016411 0.11983842
000100 11 c3 d8 3d 87 36 af be 5b 07 d6 3d 0f c4 22 bd
       0.10584081 -0.3422129 0.10450622 -0.039737757
000110 0d 64 be be 2c f5 bb be 8b a5 ef bd ca 0e 70 3d
       -0.37185708 -0.3671049 -0.11701497 0.058607854
000120 62 bb 04 3e be 42 8f 3e ce e9 89 bd b8 9a 94 3c
       0.12962106 0.27980608 -0.06734048 0.018140182
000130 07 08 dd bd 06 61 5e bb 0c 00 8a 3d ae 8a 30 bc
       -0.10792547 -0.0033932342 0.0673829 -0.010775251
000140 7f bb 62 3d 7c f0 0a 3f d8 67 cc 3a bd f8 1c 3e
       0.05535459 0.542732 0.0015594913 0.15329261
000150 fe 08 2d 3d 03 6c c4 be 8f b5 e0 3c 8c b3 01 3f
       0.042244904 -0.38363656 0.027430324 0.5066459
000160 06 52 f2 3d 4a 05 f7 3e 18 c2 1c be c2 b9 a4 be
       0.11832051 0.48246223 -0.15308416 -0.32172972
000170 0a e5 14 be e5 5e e1 be d4 b5 1e 3e 05 66 a3 be
       -0.14540496 -0.4401771 0.1549905 -0.31913772
000180 55 2d 56 3e e2 b2 08 be 5b 25 a0 3c 72 c9 3b 3e
       0.2091573 -0.13349488 0.019549062 0.18338564
000190 c8 4c 93 be 72 b6 58 ba d9 6d 10 bd 10 28 3e be
       -0.28769517 -0.00082669326 -0.03526101 -0.1856997
0001a0 9b 5c 29 3d bc 0e a9 3e e4 80 4e 3e cd 06 ca bd
       0.04134808 0.33019054 0.20166355 -0.098645784
0001b0 d2 d7 55 be 7b 00 86 be d0 f3 3e be 55 37 0f 3e
       -0.2088311 -0.26172242 -0.18647695 0.13985951
0001c0 6d bb 92 3e 76 0e 76 3e d5 34 80 3c 0e 75 2b bc
       0.2865862 0.24028954 0.015650192 -0.01046492
0001d0 5c 9f 26 be 50 9a c9 be 87 d9 88 bc 0f 2f 84 bd
       -0.16271728 -0.39375544 -0.016705288 -0.06454288
0001e0 76 02 26 bd 7c 87 81 3d 66 cf d3 bb 8a ae 9b bc
       -0.04052969 0.0632467 -0.006463933 -0.019004125
0001f0 21 15 b4 be a7 b8 a0 3d 0b 8c 13 3c 7d a7 36 3a
       -0.3517237 0.0784772 0.009005557 0.0006967707
000200 1c d4 f7 3c e0 17 8a 3e 97 90 d3 3d a1 fa 60 bd
       0.030252509 0.2697134 0.10330313 -0.05492652
000210 52 8e 88 be 0d 53 58 be 9c 9c d2 bd 95 1e bf 3b
       -0.26671082 -0.21125431 -0.10283777 0.005832503
000220 37 c3 15 be 3f 92 86 3e dd 9d 53 3d ea d0 8e 3c
       -0.1462525 0.26283452 0.051664222 0.017433602
000230 b0 bd 9c 3e 56 a8 31 3e ea 0a 2c bd 76 ab 73 be
       0.3061347 0.17349371 -0.042002596 -0.23795876
000240 83 8c 90 3d 18 8f 00 be 2b 9d ba bd 53 e5 1e 3c
       0.070580505 -0.12554586 -0.09112009 0.00969823
000250 6a 1f 66 3e d2 0c 11 3c 2e d3 f2 3d db 6c 86 bc
       0.22472921 0.008853154 0.118566856 -0.016409328
000260 bc 8d c4 bd 32 bf f7 3d 93 f3 1f 3e ca 0b 4c be
       -0.09597346 0.120970145 0.1562026 -0.19926372
000270 b7 fc 76 be 45 20 72 bd 65 e1 15 be 84 7f ce 3d
       -0.2411984 -0.059112806 -0.14636762 0.100829154
000280 0c 9d a2 bd 95 e0 b9 3d 07 fe b8 bd 8f 80 6c 3e
       -0.079401106 0.09076039 -0.09032827 0.23095916
000290 12 5e 7a 3d b1 29 06 be ed f6 bb 3d 82 db d3 bd
       0.06112487 -0.13101842 0.09177957 -0.10344602
0002a0 98 ff b7 3d 02 cb e6 bb aa 00 af 39 1b fa 53 bc
       0.089842975 -0.0070432434 0.00033379096 -0.012938048
0002b0 68 18 1f 3d ab 12 12 3e 63 f5 e5 bb 78 5e cd bc
       0.038841635 0.14264934 -0.0070177778 -0.02506946
0002c0 92 84 2b 3e ca 7c 50 3e a8 f3 10 3e f1 1e 4d be
       0.1674979 0.20360103 0.14155447 -0.20031334
0002d0 39 08 2e be 32 38 22 3e 23 ba 10 be 1c 8f 88 3d
       -0.16995324 0.1584175 -0.14133506 0.06667921
0002e0 60 14 f2 bd fa 5c 86 3e fb b1 01 bd 54 23 58 be
       -0.118202925 0.2624281 -0.031663876 -0.21107227
0002f0 d5 b4 6f 3e df 0c dd 3e bc 8c 55 3d df e1 ef bc
       0.23408826 0.43173882 0.052136168 -0.029282508
000300 4a f4 98 bd 5a 47 5d 3d 1c 9a 91 3c 9e e0 04 3d
       -0.074684694 0.054023124 0.01777368 0.032440774
000310 ef 1e 47 3e d2 cd 86 3d 01 0c 04 3c f6 4e 29 bc
       0.19445394 0.06582226 0.008059503 -0.010333767
000320 c8 bc e3 bd 64 5b a9 bd d2 66 08 3e 8f f7 60 bd
       -0.111199915 -0.082693845 0.13320473 -0.05492359
000330 f3 63 2a be 63 d8 87 be 85 fe 21 be cc f7 53 3d
       -0.1663969 -0.26532277 -0.15819748 0.05174999
000340 8c 62 e8 3d fb 11 e1 3d 6a 0b 03 bc d4 d1 ac 3c
       0.11346921 0.109897576 -0.007998327 0.021096148
000350 1d 81 5a bd eb 7a 91 3d 5f 95 72 3c 1a 8f 1d be
       -0.05334579 0.07103523 0.014806121 -0.1538662
000360 05 94 51 3d b7 a5 9e 3c ee f8 43 bd af b7 3c bd
       0.051166553 0.019366128 -0.04784482 -0.04607361
000370 9b 8c f1 3d dc 63 b9 3e 13 76 4b 3d 1a 1b 8c 3d
       0.117943965 0.36209 0.04967315 0.06841107
000380 40 82 a5 bd b4 d6 30 bd 10 15 0b be 2f 7d 44 bc
       -0.08081484 -0.043173507 -0.13582253 -0.011992737
000390 df 99 8a be b0 80 45 3e ec c9 19 3e 6e ba 10 3d
       -0.2707052 0.19287372 0.15018433 0.035334043
0003a0 24 57 cd 3d 21 58 ca bc b6 f8 ef 3b fd b2 2b 3e
       0.100263864 -0.024700226 0.00732335 0.16767497
0003b0 e4 57 f6 3d 12 2e 9c be 32 68 3f bc b8 de 2a 3d
       0.120284826 -0.305039 -0.011682557 0.041716307
0003c0 00 7f e9 bd 81 43 87 3d 3a 97 0c bd b1 16 ca 3c
       -0.114011765 0.06604672 -0.03432391 0.024669023
0003d0 77 4e ed 3d 83 80 68 3e 5f 59 28 3d b9 9d 6d bc
       0.115872316 0.22705273 0.041100856 -0.014502936
0003e0 e4 11 7c 3d 1e e4 63 3e 52 65 63 bd 1d 8d c9 3d
       0.0615405 0.22254989 -0.05551655 0.09841368
0003f0 59 29 71 be f6 ea a2 3d d3 a0 31 3d 3a df de bd
       -0.23550929 0.079549715 0.043366265 -0.10882421

bias f4 [64]
000000 66 ef d7 3d b9 1b 04 bd af f6 97 3e e5 2d a4 3e
       0.105437085 -0.032253 0.29680392 0.32066265
000010 e0 ff 2e 3e a3 4f 3c 3e 85 49 4b be 18 68 b5 3d
       0.17089796 0.18389754 -0.19852264 0.08857745
000020 4f 7e 63 3e 3d 55 6e be 5a b1 14 be b5 e6 09 bd
       0.22216152 -0.23274703 -0.14520779 -0.033667285
000030 16 c0 6d be 14 df 88 3d aa ed 06 3e b9 9e 1c 3e
       -0.23217806 0.06683174 0.13176599 0.15294923
000040 59 b1 9d be 59 6a 93 3e 2b d9 de 3d e8 66 14 bf
       -0.30799368 0.28792074 0.10881265 -0.5796952
000050 ee 33 1f 3e ad e8 98 be 7a 22 8c 3c 9a 3e 1b 3d
       0.15547153 -0.29865018 0.017106283 0.0379015
000060 25 77 99 3d 9f 29 b2 be 2d 53 3a 3e 9a 07 52 3e
       0.07493428 -0.3479738 0.18195792 0.20510712
000070 c8 d6 82 bc 7c 63 84 3e 9f 97 e4 3c 61 85 5a be
       -0.015971556 0.2585715 0.02790433 -0.21339943
000080 6e e2 10 be 4b 5b 3e be db 43 1e 3e 23 a6 2b be
       -0.14148876 -0.18589513 0.15455572 -0.16762595
000090 40 fa 40 be c0 ad a1 3e cc 8f 38 3d d2 c4 e8 3e
       -0.18845463 0.31577873 0.04505901 0.45462662
0000a0 2f eb 00 3a c8 86 8e be 4f 83 0c 3b f3 e6 81 3e
       0.00049178576 -0.27837205 0.002144057 0.25371513
0000b0 80 49 c0 3e 47 d2 92 be 25 53 27 be 11 14 d0 bd
       0.37556076 -0.28676054 -0.16340311 -0.10160077
0000c0 72 24 6c 3d 9f f4 8a 3c d2 4a 27 be d0 4d 2d bf
       0.057651944 0.016962348 -0.16337135 -0.6769686
0000d0 99 e4 9e be d0 90 66 be a5 34 cd 3b 51 af 8f 3e
       -0.3103378 -0.22516179 0.006262379 0.28063443
0000e0 f6 29 92 be 8a d9 76 3e 77 2b 56 be 44 cd f1 be
       -0.2854764 0.24106422 -0.20915018 -0.47226918
0000f0 04 fb 94 3d 6b bc 16 3d cf 1c dd be cb 95 8a 3d
       0.0727444 0.036800783 -0.43186042 0.06766852

weight f4 [16, 66]
000000 31 fa dc 3d 5a db b2 bb 12 b0 37 be 7f f2 c9 3b
       0.10789908 -0.0054582777 -0.17938259 0.006162941
000010 a5 49 4c bc 86 dd 80 be 2e 26 00 bd 27 1b 64 bd
       -0.01246873 -0.2516901 -0.03128641 -0.055689957
000020 11 5f 2a 3c f1 92 34 be f8 e2 d8 bc 31 13 7a bd
       0.010398642 -0.17634179 -0.026475415 -0.06105346
000030 b9 f5 c1 bc 20 42 be be 2a 3e 8d 3d f2 b1 83 bb
       -0.02367674 -0.37159824 0.068966225 -0.0040190155
000040 86 9d 05 bd e9 e2 99 bd 5e 91 18 be 7f d1 9c 3d
       -0.03262093 -0.07513983 -0.14899203 0.07657146
000050 20 5e eb 3d 4f 5d 94 3d c2 60 44 bd 74 73 3e be
       0.11492562 0.0724436 -0.047943838 -0.1859873
000060 3a 4f 48 3d 58 d2 e4 3a 0c 42 0f be 7d 2e b7 3c
       0.04890368 0.0017457707 -0.13990039 0.022361035
000070 20 74 4e 3b 3b 80 7e bc d2 fd 44 bf 8e ff 42 3d
       0.0031502321 -0.015533502 -0.769498 0.047606997
000080 70 89 ee bd e3 b6 2e bd 4c ad fc bd 32 12 4f 3d
       -0.11647308 -0.042654883 -0.12337741 0.05055446
000090 b3 b0 9a bc be 73 92 bd f6 a6 4f 3d 8a d7 f0 3d
       -0.018883085 -0.07150982 0.050696336 0.11759861
0000a0 b0 ad e7 3d a2 1e 8b bd a8 78 d3 3d 92 bf 3a 3d
       0.11312425 -0.06792952 0.10325748 0.045592852
0000b0 43 f3 dc bc 71 5e f4 be 86 0b 0c 3d 87 13 6a 3e
       -0.026971465 -0.47728303 0.034190677 0.22859012
0000c0 e8 f7 9a bd 45 24 a4 3c a8 6f af bd 44 70 06 bd
       -0.075668156 0.020036826 -0.085662186 -0.03282191
0000d0 ce a1 9a 3d 13 76 85 3e b3 42 9a 3d 80 95 21 3c
       0.07550393 0.26066646 0.07532253 0.009862304
0000e0 75 ac e6 3d 02 22 26 be 63 98 c0 ba f4 1f 9f 3c
       0.11263362 -0.1622391 -0.0014693852 0.019424416
0000f0 ee c9 ee bc c3 33 8c 3c 6f 55 56 3e b7 18 ca bd
       -0.029149022 0.017114526 0.20931028 -0.09867995
000100 f6 75 06 3d d7 4a a1 bc 4e bc 27 3d 06 66 99 bd
       0.03282734 -0.019689007 0.040951066 -0.074901626
000110 cc 05 bd 3d d7 2d 8d 3d f3 bd 00 bd ea 66 12 3c
       0.09229621 0.06893509 -0.03143115 0.008935669
000120 bd 1e 85 3d 56 29 d4 3c 82 68 81 bc ba eb 90 3d
       0.065000035 0.025898617 -0.015796904 0.07076211
000130 5d cc 58 3d 19 25 6d 3d 4f c3 4d 3d d3 48 2a bc
       0.05292927 0.057896707 0.05023509 -0.010393339
000140 25 5e 2a bd 43 88 aa bc d4 6f bf 3b c2 cd e2 bc
       -0.04159369 -0.020816928 0.0058421884 -0.027686004
000150 84 98 76 3d d9 b0 83 bd 20 6a bb 3d db 4f 17 bf
       0.060204044 -0.064302154 0.09151101 -0.59106225
000160 ac 6e 67 3d 66 59 f5 3d 11 76 a5 bd 43 73 8e c0
       0.05650203 0.11979942 -0.0807916 -4.45157
000170 52 b0 a7 bb 14 1a 0c 3e cc d8 84 3d 0f ef df bb
       -0.0051174546 0.13681823 0.06486663 -0.006833918
000180 05 f3 9b 3e 0a 20 2e bd 8d 10 3f 3d 53 fb 21 bc
       0.30458847 -0.042511024 0.046646643 -0.0098865805
000190 9f 41 98 be ce e9 44 3b 7e 00 7a 3b 8f bc 1f be
       -0.29737565 0.0030046585 0.0038147266 -0.15599273
0001a0 f8 ed f7 3c 5a 15 83 bd ce c1 11 3b cc 67 97 be
       0.03026484 -0.06400557 0.002224076 -0.29571378
0001b0 4a 43 22 bd a5 2f b6 bc 32 39 03 bd f7 56 91 3d
       -0.039614953 -0.022239516 -0.032036968 0.07096665
0001c0 ed dc aa 3b de 35 65 bd d7 32 0f bd 9d 5a b3 3a
       0.0052143247 -0.055959575 -0.034960594 0.0013683621
0001d0 1a 70 22 bd b7 ea 25 be 4d d3 05 be 8b 9e c5 bd
       -0.03965769 -0.16202818 -0.13068886 -0.0964938
0001e0 70 7a 7f bd 3a d9 32 3d 92 b4 03 be 87 f8 f5 3c
       -0.062372625 0.043664195 -0.12861851 0.030025734
0001f0 4a dd 52 bb 9c 8f f3 3d de b5 06 3d f3 3e 9a 3d
       -0.0032175356 0.11892626 0.032888286 0.07531538
000200 1d e5 6d be c2 51 c0 bd b3 f9 2b bd 7c 08 92 3b
       -0.23231931 -0.09390594 -0.04198618 0.004456578
000210 93 0c 32 bd 07 e2 11 bd 30 00 b1 bc ca 8c 88 3d
       -0.043469023 -0.035615947 -0.021606535 0.066674784
000220 fc 2d 45 3c d2 7d 1e 3c cf b7 a7 bd e4 5a d3 bc
       0.012034889 0.009673553 -0.081893556 -0.025800176
000230 2c 55 a5 3c c0 d5 02 be ee d8 07 be 89 94 d8 3b
       0.020182215 -0.12776852 -0.13266346 0.0066095036
000240 9a a4 43 be 60 3c 4c bd 86 cf d4 3d 00 d7 6a 3d
       -0.1910576 -0.049862266 0.103911445 0.057333946
000250 e6 8c ef 38 9f bd d7 bd 9f 5b 3a 3c ba 37 ff 3d
       0.000114226525 -0.10534214 0.011374383 0.12461801
000260 40 70 d5 3c 93 d4 49 3e 1c d5 98 bd 2e 04 71 3c
       0.026054502 0.19709997 -0.074625224 0.014710469
000270 40 64 89 3d 04 70 58 bd 60 72 85 3b 5e 49 e8 bd
       0.06708574 -0.0528412 0.0040724725 -0.11342119
000280 32 e0 2e bd 44 81 0e 3a 3a 3a 20 bf 97 fa 89 3d
       -0.042694278 0.0005436132 -0.62588847 0.06737249
000290 92 69 f3 3c 0c 74 54 bd 96 a0 4e be 57 d3 f6 3c
       0.029713426 -0.051868483 -0.20178446 0.030130072
0002a0 b4 1a 63 3e 64 80 57 bc 75 0d 8c 3d 80 18 9d 3c
       0.22178155 -0.013153169 0.06838504 0.019176722
0002b0 e8 65 08 3d 58 f4 29 be 02 8e ad 3c d7 b8 46 bd
       0.03330031 -0.16597116 0.021185879 -0.04851612
0002c0 a4 07 2a 3c 15 66 81 bd 27 1a 78 39 e0 a0 d7 3d
       0.010377798 -0.06318299 0.00023660866 0.10528731
0002d0 a4 35 21 3d ad 67 62 bd 0e 65 ce bd 92 a6 19 be
       0.039357796 -0.055274654 -0.100778684 -0.15004948
0002e0 e4 f4 e1 3d 38 45 49 3e 55 88 4f 3d f6 15 a2 be
       0.11033037 0.19655311 0.050667126 -0.3165738
0002f0 85 8d 17 3e ef 24 85 bc c4 ae ea 3c fa 2b c0 3b
       0.14800079 -0.016252963 0.028647788 0.0058646174
000300 6e 49 96 bb e2 32 09 3d bb 17 9f 3d 09 95 88 bc
       -0.00458639 0.03349579 0.07768198 -0.016672628
000310 4d 28 47 bc d7 0d f5 b9 ca d0 0f bd 22 0d b5 bd
       -0.012155605 -0.00046740353 -0.035111226 -0.088403955
000320 ce 67 9c bd c2 f0 c0 be f8 33 33 bd d8 8a 8e 3d
       -0.07636987 -0.37683684 -0.043750733 0.06960076
000330 28 5b 43 3d dd b4 d8 bd 7a ae 10 bd 80 52 d2 bb
       0.047694355 -0.10581372 -0.035322644 -0.006418526
000340 b3 b1 92 3d 24 e8 60 3d 76 81 89 3d 49 9f 34 3e
       0.071628 0.054908887 0.06714146 0.17638887
000350 a7 e0 e8 3c 27 fb d3 3d 6e 3b d3 3c 5a 68 9b 3d
       0.028427435 0.10350638 0.025785174 0.07588263
000360 05 ba 45 bc c2 54 53 be c5 91 0b 3d 23 73 1d bf
       -0.012068276 -0.20637801 0.034074564 -0.6150381
000370 b0 13 e2 bc c4 16 b6 bb 14 32 9a 3b 4a 97 9d bf
       -0.027597278 -0.005556913 0.004705677 -1.2311795
000380 18 32 a6 bc f8 45 7e 3e ba e1 b5 3c bf 8b 56 bd
       -0.020287558 0.24831378 0.022202361 -0.052379366
000390 96 bc 41 be e9 cc 1d be 4d 9f d3 bd a6 65 38 3b
       -0.18919596 -0.15410198 -0.103331186 0.002813676
0003a0 62 54 2c bf 6a a2 5c 3d 1f 0b 54 be 11 6b 29 3e
       -0.6731626 0.053865828 -0.20707367 0.16544749
0003b0 53 2e 1e bd 6b ee 38 bd a0 19 ac bd 47 02 56 bd
       -0.038618397 -0.045149248 -0.08403325 -0.052248266
0003c0 10 5c 03 bc 43 dc be 3d a9 78 cf bd fb dd 0a 3d
       -0.008017555 0.09319355 -0.10130436 0.033903103
0003d0 10 49 ea bb fb 8b 45 bd 46 3f 76 3c f8 6f 9a 3d
       -0.007149823 -0.0482292 0.015029734 0.075408876
0003e0 89 45 2f 3d 97 35 36 3d fb 26 fc bd 8f 31 5c be
       0.042790923 0.0444847 -0.123121224 -0.2150328
0003f0 39 e8 a3 bd c8 09 01 3e 88 27 6e be 83 e1 1d 3e
       -0.08003277 0.12601388 -0.23257267 0.15418057

bias f4 [16]
000000 36 ea 56 3e c1 f9 f7 3d d1 16 a4 be 7a b9 4e 3d
       0.20987782 0.12108184 -0.32048658 0.050469853
000010 dc f8 4d 3d 73 4c 85 3e e0 2f 84 be 6a f8 60 3e
       0.05028616 0.2603489 -0.25817776 0.21969762
000020 be 11 86 3d c5 3b 48 be 54 5a 45 3d 6c bb 5e be
       0.06546353 -0.1955405 0.048181847 -0.21751183
000030 c7 20 c6 3d f0 66 9d be 55 27 75 3d e5 d4 cb 3e
       0.096742205 -0.30742598 0.059851963 0.39810863

weight f4 [1, 16]
000000 93 f1 13 3e de b9 14 3e ea 9c 71 be 5f ab 7e be
       0.14447622 0.14524028 -0.23595014 -0.2487006
000010 13 fa 07 3e 03 8a 8e 3d 0c c5 f7 bd aa 80 7e 3d
       0.1327899 0.069599174 -0.120981306 0.062134422
000020 a2 21 22 3e 15 29 7f bd 38 b7 9e bd 54 c3 40 3d
       0.15833142 -0.06229504 -0.0774979 0.04706128
000030 ff 96 cd 3d 85 6a 21 be 44 ef 74 3e 93 a9 82 3d
       0.10038566 -0.1576329 0.23919398 0.0638
